…
core/TensorImpl.h:1156.)\n",
      "  return torch.max_pool2d(input, kernel_size, stride, padding, dilation, ceil_mode)\n"
     ]
    }
   ],
   "source": [
    "arch = RetinaNet(encoder, get_c(dls), final_bias=-4)"
   ]
  },
  {
   "cell_type": "code",
   "execution_count": 22,
   "metadata": {},
   "outputs": [
    {
     "data": {
      "text/plain": [
       "Sequential(\n",
       "  (0): AdaptiveConcatPool2d(\n",
       "    (ap): AdaptiveAvgPool2d(output_size=1)\n",
       "    (mp): AdaptiveMaxPool2d(output_size=1)\n",
       "  )\n",
       "  (1): Flatten(full=False)\n",
       "  (2): BatchNorm1d(248, eps=1e-05, momentum=0.1, affine=True, track_running_stats=True)\n",
       "  (3): Dropout(p=0.25, inplace=False)\n",
       "  (4): Linear(in_features=248, out_features=512, bias=False)\n",
       "  (5): ReLU(inplace=True)\n",
       "  (6): BatchNorm1d(512, eps=1e-05, momentum=0.1, affine=True, track_running_stats=True)\n",
       "  (7): Dropout(p=0.5, inplace=False)\n",
       "  (8): Linear(in_features=512, out_features=4, bias=False)\n",
       ")"
      ]
     },
     "execution_count": 22,
     "metadata": {},
     "output_type": "execute_result"
    }
   ],
   "source": [
    "create_head(124, 4)"
   ]
  },
  {
   "cell_type": "code",
   "execution_count": 23,
   "metadata": {},
   "outputs": [
    {
     "data": {
      "text/plain": [
       "ModuleList(\n",
       "  (0): Conv2d(256, 256, kernel_size=(3, 3), stride=(1, 1), padding=(1, 1))\n",
       "  (1): Conv2d(256, 256, kernel_size=(3, 3), stride=(1, 1), padding=(1, 1))\n",
       "  (2): Conv2d(256, 256, kernel_size=(3, 3), stride=(1, 1), padding=(1, 1))\n",
       ")"
      ]
     },
     "execution_count": 23,
     "metadata": {},
     "output_type": "execute_result"
    }
   ],
   "source": [
    "arch.smoothers"
   ]
  },
  {
   "cell_type": "code",
   "execution_count": 25,
   "metadata": {},
   "outputs": [
    {
     "data": {
      "text/plain": [
       "Sequential(\n",
       "  (0): ConvLayer(\n",
       "    (0): Conv2d(256, 256, kernel_size=(3, 3), stride=(1, 1), padding=(1, 1))\n",
       "    (1): ReLU()\n",
       "  )\n",
       "  (1): ConvLayer(\n",
       "    (0): Conv2d(256, 256, kernel_size=(3, 3), stride=(1, 1), padding=(1, 1))\n",
       "    (1): ReLU()\n",
       "  )\n",
       "  (2): ConvLayer(\n",
       "    (0): Conv2d(256, 256, kernel_size=(3, 3), stride=(1, 1), padding=(1, 1))\n",
       "    (1): ReLU()\n",
       "  )\n",
       "  (3): ConvLayer(\n",
       "    (0): Conv2d(256, 256, kernel_size=(3, 3), stride=(1, 1), padding=(1, 1))\n",
       "    (1): ReLU()\n",
       "  )\n",
       "  (4): Conv2d(256, 180, kernel_size=(3, 3), stride=(1, 1), padding=(1, 1))\n",
       ")"
      ]
     },
     "execution_count": 25,
     "metadata": {},
     "output_type": "execute_result"
    }
   ],
   "source": [
    "arch.classifier"
   ]
  },
  {
   "cell_type": "code",
   "execution_count": 26,
   "metadata": {},
   "outputs": [
    {
     "data": {
      "text/plain": [
       "Sequential(\n",
       "  (0): ConvLayer(\n",
       "    (0): Conv2d(256, 256, kernel_size=(3, 3), stride=(1, 1), padding=(1, 1))\n",
       "    (1): ReLU()\n",
       "  )\n",
       "  (1): ConvLayer(\n",
       "    (0): Conv2d(256, 256, kernel_size=(3, 3), stride=(1, 1), padding=(1, 1))\n",
       "    (1): ReLU()\n",
       "  )\n",
       "  (2): ConvLayer(\n",
       "    (0): Conv2d(256, 256, kernel_size=(3, 3), stride=(1, 1), padding=(1, 1))\n",
       "    (1): ReLU()\n",
       "  )\n",
       "  (3): ConvLayer(\n",
       "    (0): Conv2d(256, 256, kernel_size=(3, 3), stride=(1, 1), padding=(1, 1))\n",
       "    (1): ReLU()\n",
       "  )\n",
       "  (4): Conv2d(256, 36, kernel_size=(3, 3), stride=(1, 1), padding=(1, 1))\n",
       ")"
      ]
     },
     "execution_count": 26,
     "metadata": {},
     "output_type": "execute_result"
    }
   ],
   "source": [
    "arch.box_regressor"
   ]
  },
  {
   "cell_type": "code",
   "execution_count": 27,
   "metadata": {},
   "outputs": [],
   "source": [
    "ratios = [1/2,1,2]\n",
    "scales = [1,2**(-1/3), 2**(-2/3)]"
…
